assignment2_coding/results/q4_linear/model.weights.pt (torch, 1535 bytes, 2 tensors)

weight f4 [5, 25]
000000 bd 7e 6a 3d 91 05 d3 be f3 28 cc be b4 e4 0d bf
       0.057249773 -0.41215184 -0.39874992 -0.554271
000010 ad 58 9a 3f 9c 2c 8e 3f 8b 4e 33 bc 27 4f 43 3f
       1.2058312 1.1107364 -0.010944019 0.7629265
000020 67 07 3d bf 99 9f 88 be dc 01 1d 3f d0 5d 91 3f
       -0.7383942 -0.26684263 0.6133096 1.1356754
000030 3f 98 e1 3d 61 55 9b 3e 1c ee 25 3f a1 a8 20 bf
       0.11015367 0.30338576 0.6481645 -0.6275731
000040 26 c6 c1 bf b4 25 d4 be 30 d7 4c bf d3 90 cb 3d
       -1.5138595 -0.41435015 -0.8001585 0.099397324
000050 d0 01 09 bf 60 b3 5b 3f a0 a4 a8 3d 0c b0 66 3e
       -0.5351839 0.8582058 0.08234525 0.22528094
000060 60 0d 6d bf 0c 01 1e 40 be ba 9e 3f b5 a2 ab bf
       -0.92598534 2.468814 1.2400739 -1.3409029
000070 9b 58 ab bc 9a b1 07 c0 d4 f1 37 c0 42 73 8d bf
       -0.020916274 -2.120215 -2.874135 -1.1050799
000080 0b 57 07 c0 8a 0d 69 bf db 10 11 bf eb a7 8b bf
       -2.1146877 -0.91036284 -0.56666344 -1.091062
000090 50 ee 96 bf f3 83 4c 3f 7e 69 ad be 34 25 1d 3e
       -1.1791477 0.7988884 -0.33869547 0.15346223
0000a0 db a0 a8 3f da 16 53 3f aa 25 6b 3f 86 71 82 3f
       1.3174089 0.82456744 0.91854346 1.0190895
0000b0 ab 64 22 3f 44 1a 14 40 c8 02 eb 3d 90 ea ee 3f
       0.6343486 2.3141031 0.1147514 1.8665333
0000c0 5c 21 5a bf 95 71 b5 3f 23 a5 f0 3f 42 08 97 3f
       -0.8520715 1.4175287 1.8800396 1.1799395
0000d0 e7 95 39 3c 08 78 42 bf 64 91 9a bf 19 f0 1f 3e
       0.011327243 -0.75964403 -1.207562 0.15618934
0000e0 8e af 4a bf 81 6b 4e 3f b5 64 ef bf 50 8c cd bf
       -0.79174125 0.8063279 -1.8702608 -1.6058445
0000f0 12 68 c5 3d 0b 46 86 3f fa cc e7 bd 83 e7 20 be
       0.096389905 1.0490125 -0.11318393 -0.15713315
000100 59 f2 0f be 40 96 d5 be e1 53 f6 bf 72 b2 04 3f
       -0.14057292 -0.41716194 -1.9244348 0.51834786
000110 88 b4 3b 3f 1e 8c 2f 3f 04 33 03 3f 8d 4a c8 bd
       0.73322344 0.68573177 0.5124972 -0.097798444
000120 01 a1 98 bd 19 1e 4e 3d a3 d7 82 be 27 6b ff 3f
       -0.07452584 0.050321672 -0.25555143 1.9954575
000130 1e 2c e8 3e e2 26 95 bf 86 b0 17 be 8e c2 56 bf
       0.4534616 -1.1652491 -0.14813432 -0.83890617
000140 38 6e 87 bf 27 b8 0b bf da 42 11 bf 97 c0 3c bf
       -1.0580511 -0.5457787 -0.5674263 -0.7373137
000150 ba 36 52 bf fe 9d 46 bf 90 3f 83 bd c5 2a d4 3e
       -0.82114756 -0.77584827 -0.06408608 0.4143888
000160 90 71 df be de 9c a7 bd 42 33 82 3f 3c 27 61 bf
       -0.4364133 -0.08184217 1.0171893 -0.8795049
000170 7f 6e bb 3f f5 0b 80 3f d7 ab 19 3f d7 05 74 3f
       1.4643096 1.0003649 0.6002783 0.9532141
000180 05 d1 07 3c 37 88 80 3f d2 61 69 bf 87 53 6b be
       0.00828958 1.004157 -0.91164887 -0.22981082
000190 e4 ee bb 3f 69 1c 50 3f a9 b9 d6 bd fe 5b e6 bd
       1.4682279 0.8129335 -0.104846306 -0.11248015
0001a0 1a a1 b5 bf 86 d2 11 bf c5 c2 65 bf 54 0f 8c 3d
       -1.4189789 -0.5696186 -0.8975032 0.06838861
0001b0 a8 62 7d bf 1b 41 37 bf dd f7 38 bf c8 48 c5 bd
       -0.9897866 -0.7158372 -0.7225321 -0.096330225
0001c0 3e ec 72 3e 4e 0a 92 bf e5 42 55 3e 88 8c d3 bc
       0.23722932 -1.1409395 0.208263 -0.025823846
0001d0 b6 8f db be 4e e7 c2 3e e6 84 80 3f dc 1f 76 3f
       -0.4288308 0.38067096 1.0040557 0.96142364
0001e0 40 ae b9 3e c8 a8 b6 3e 18 35 08 3f fb a6 93 be
       0.36265755 0.35675645 0.53206015 -0.28838333
0001f0 eb 79 10 bf
       -0.5643603

bias f4 [5]
000000 e5 f2 9d 40 3d 6d 78 40 3b 09 a0 40 34 b3 80 40
       4.9359 3.8816674 5.001127 4.0218754
000010 32 99 a0 40
       5.0187006
